Models/banknote_model.pth (torch_old, 1517 bytes, 5 tensors)

hid1.weight f4 [8, 4]
00000000: a2fe 35bd e612 153f 9530 ebbe 3b65 ba3e
00000010: 2bfd 11bf 6dc3 58bf fa74 2ebf de50 d13e
00000020: fe7c 473f 6389 4ebe f6d0 0c3f d976 e23e
00000030: 6dcb 063f 8d57 193f 9d3a 563f 59e8 4c3e
00000040: 9c8c 423e 217f febe 427e 58bf bffb 8ebe
00000050: 3def 88bf 8e01 8fbf 10b3 75bf df3b 3d3e
00000060: bb41 97bf 0ab2 00bf f702 3cbf ee15 9c3e
00000070: 2007 5fbd d26f f3be 2613 9f3e 0270 e3bd
-0.04443229 0.5823196 -0.45935503 0.36405358 -0.5702693 -0.84673196 -0.6814724 0.4088201
0.779251 -0.20169596 0.5500635 0.442313 0.52654153 0.59899217 0.83683187 0.20010509
0.1899895 -0.49706367 -0.84567654 -0.27926442 -1.069801 -1.117235 -0.9597635 0.1847987
-1.1816934 -0.50271666 -0.73442024 0.3048548 -0.054450154 -0.4754625 0.31069297 -0.11105348

hid1.bias f4 [8]
00000000: 308d e63c d826 203f a80f 22bf 38e1 59bf
00000010: 8c2c bb3e 6eec a03f 782d 563f 3f61 b93e
0.028143495 0.6255927 -0.6330514 -0.8510928 0.36557424 1.2572153 0.8366313 0.36207005

hid2.weight f4 [8, 8]
00000000: 4fd5 b23d 5e3a 7fbf e42e c2bd 63c6 223d
00000010: b286 e7be ab7f 8cbd 7eca 08bf 2efb c9be
00000020: 629e 9c3e f822 dbbd 1a98 143f 4fe1 1dbd
00000030: 7dea 1fbc e876 16bf ea91 c1be 561a e8be
00000040: 4705 8ebe 79d1 d03e 04c7 3abe a8e0 f1be
00000050: b6d5 e43e dedd ab3f 693c 8d3f e931 8a3e
00000060: 7720 543d 0f9f 89bf cbb7 5c3f aa75 d83e
00000070: 9bf1 babe c4b6 aabf e7c6 32bf 23fc 8cbe
00000080: 614d c63e ff05 3a3d fc97 50bf 8047 07bf
00000090: 7b38 9ebd 6df6 633f c044 493e 5434 b3be
000000a0: 4369 ce3d fa0b 223e 994d 87be 6069 fe3e
000000b0: 807a a43e fd2f 883e 6e55 2bbf 85cc 3c3e
000000c0: f6ef a1be ca42 023e 5a06 dc3b ef5b 393f
000000d0: 4a26 22be d167 02bf 7a97 a1be e34c 193e
000000e0: 518b 833e 4d9d 123f ac85 d5bd 7230 7bbf
000000f0: 675f 2d3f 7933 943f 9980 743f 8268 c93e
0.08732092 -0.99698436 -0.094816 0.039739978 -0.45219952 -0.06860288 -0.5343398 -0.39449447
0.30589586 -0.10700029 0.5804459 -0.03854495 -0.009760496 -0.58775187 -0.37806636 -0.45332593
-0.277384 0.40784815 -0.18239981 -0.47241712 0.44694299 1.3427083 1.1034061 0.26991203
0.051788773 -1.0751666 0.86217946 0.4227727 -0.36512455 -1.3337026 -0.6983475 -0.27536115
0.3873091 0.045415875 -0.8148191 -0.52843475 -0.077256165 0.8904789 0.19655132 -0.3500086
0.10078671 0.15824881 -0.2642639 0.4968977 0.3212471 0.26599112 -0.6692723 0.18437393
-0.31628388 0.1272079 0.0067146244 0.72405905 -0.15834919 -0.5093966 -0.3156088 0.14970736
0.25692227 0.5727127 -0.104258865 -0.98120797 0.677237 1.1578208 0.95508724 0.39337546

hid2.bias f4 [8]
00000000: defa 0abe 22da c2bd 1581 ca3e faef d6be
00000010: b12a 013e a5f5 16be 5408 85bd 0d7d a63e
-0.1357226 -0.09514262 0.39551607 -0.41979963 0.12613942 -0.14742143 -0.06495729 0.3251728

oupt.weight f4 [1, 8]
00000000: 2733 7bbf 65a4 46bf af50 0040 66d8 0ec0
00000010: 39bf 9f3f fafc dabe 1132 56bf 5986 f33f
-0.9812493 -0.77594596 2.0049245 -2.231958 1.2480232 -0.4277113 -0.83670145 1.9025375
